…
 'Dwayne Johnson' 'Elizabeth Olsen' 'Ellen Degeneres' 'Henry Cavill'
 'Hrithik Roshan' 'Hugh Jackman' 'Jessica Alba' 'Kashyap' 'Lisa Kudrow'
 'Margot Robbie' 'Marmik' 'Natalie Portman' 'Priyanka Chopra'
 'Robert Downey Jr' 'Roger Federer' 'Tom Cruise' 'Vijay Deverakonda'
 'Virat Kohli' 'Zac Efron']
Shapes: (1793, 160, 160, 3) (384, 160, 160, 3) (385, 160, 160, 3)
Model: "functional"
┏━━━━━━━━━━━━━━━━━━━━━━━━━━━━━━━━━┳━━━━━━━━━━━━━━━━━━━━━━━━┳━━━━━━━━━━━━━━━┓
┃ Layer (type)                    ┃ Output Shape           ┃       Param # ┃
┡━━━━━━━━━━━━━━━━━━━━━━━━━━━━━━━━━╇━━━━━━━━━━━━━━━━━━━━━━━━╇━━━━━━━━━━━━━━━┩
│ input_layer_1 (InputLayer)      │ (None, 160, 160, 3)    │             0 │
├─────────────────────────────────┼────────────────────────┼───────────────┤
│ multiply (Multiply)             │ (None, 160, 160, 3)    │             0 │
├─────────────────────────────────┼────────────────────────┼───────────────┤
│ true_divide (TrueDivide)        │ (None, 160, 160, 3)    │             0 │
├─────────────────────────────────┼────────────────────────┼───────────────┤
│ subtract (Subtract)             │ (None, 160, 160, 3)    │             0 │
├─────────────────────────────────┼────────────────────────┼───────────────┤
│ mobilenetv2_1.00_160            │ (None, 5, 5, 1280)     │     2,257,984 │
│ (Functional)                    │                        │               │
├─────────────────────────────────┼────────────────────────┼───────────────┤
│ global_average_pooling2d        │ (None, 1280)           │             0 │
│ (GlobalAveragePooling2D)        │                        │               │
├─────────────────────────────────┼────────────────────────┼───────────────┤
│ dropout (Dropout)               │ (None, 1280)           │             0 │
├─────────────────────────────────┼────────────────────────┼───────────────┤
│ dense (Dense)                   │ (None, 256)            │       327,936 │
├─────────────────────────────────┼────────────────────────┼───────────────┤
│ batch_normalization             │ (None, 256)            │         1,024 │
│ (BatchNormalization)            │                        │               │
├─────────────────────────────────┼────────────────────────┼───────────────┤
│ dropout_1 (Dropout)             │ (None, 256)            │             0 │
├─────────────────────────────────┼────────────────────────┼───────────────┤
│ dense_1 (Dense)                 │ (None, 31)             │         7,967 │
└─────────────────────────────────┴────────────────────────┴───────────────┘
 Total params: 2,594,911 (9.90 MB)
 Trainable params: 336,415 (1.28 MB)
 Non-trainable params: 2,258,496 (8.62 MB)
/Users/nmwiley.808/PycharmProjects/csci158 Assignment 2/.venv/lib/python3.9/site-packages/keras/src/trainers/data_adapters/py_dataset_adapter.py:121: UserWarning: Your `PyDataset` class should call `super().__init__(**kwargs)` in its constructor. `**kwargs` can include `workers`, `use_multiprocessing`, `max_queue_size`. Do not pass these arguments to `fit()`, as they will be ignored.
…
